models/convolutional_neural_network_cat_or_dog.pt (torch, 428416 bytes, 8 tensors)

weight f4 [32, 1, 3, 3]
0	0x3e01713c	0.12640852
1	0x3e0d6f47	0.1381198
2	0xbeb3df52	-0.35131317
3	0xbe7fbacd	-0.24973603
4	0x3df990c4	0.12185815
5	0x3f040dd2	0.5158359
6	0x3e3514f8	0.1768378
7	0xbe620f9c	-0.22076267
8	0xbdf08676	-0.117443964
9	0xbe47088a	-0.19436851
10	0x3e96d433	0.2945877
11	0x3bd3dec1	0.0064657633
12	0xbeade4ea	-0.3396371
13	0x3e7f7f4e	0.24950907
14	0x3e1a02ab	0.1504008
15	0xbe8af409	-0.2713931
16	0xbd492fdc	-0.049117908
17	0x3d73e141	0.05954099
18	0xbeddeb4f	-0.4334359
19	0x3e236161	0.15955116
20	0x3db7f489	0.08982188
21	0x3eb12d56	0.346049
22	0xbccabd8f	-0.024748592
23	0xbd2bee2a	-0.041975178
24	0xbb8d9dda	-0.004321796
25	0x3c90d603	0.017680174
26	0xbde8a87a	-0.11360259
27	0xbdf4c5ac	-0.119517654
28	0x3ddd1df2	0.10796727
29	0x3d798e69	0.06092683
30	0x3ea4a9ff	0.32160947
31	0xbd380ae8	-0.044932276
32	0x3e4c8eca	0.19976345
33	0x3cf145ec	0.029452287
34	0xbc4d8507	-0.012543923
35	0xbd632d74	-0.05546327
36	0xbe8549ba	-0.2603281
37	0x3efd1dd9	0.49436834
38	0xbbca4e7c	-0.006173907
39	0x3e67bff0	0.22631812
40	0x3ea68d0f	0.32529494
41	0xbead942b	-0.33902106
42	0x3db2dd95	0.0873367
43	0xbe47c9e0	-0.19510603
44	0xbe8f5d5d	-0.28000918
45	0xbe0557c1	-0.13021757
46	0xbde815c0	-0.113322735
47	0x3eb4087c	0.35162723
48	0x3e5736ab	0.21016948
49	0xbe85cbb9	-0.2613199
50	0x3e6e598c	0.23276347
51	0xbe939087	-0.28821203
52	0xbe8640e9	-0.26221398
53	0x3e6b3076	0.22967705
54	0x3e6e2b7d	0.23258777
55	0x3e5a81b0	0.21338534
56	0x3eaed7e9	0.341491
57	0x3dacb483	0.084328674
58	0x3ce87670	0.028376788
59	0xbe02f888	-0.1279012
60	0x3eb64c4b	0.35605082
61	0x3d9b9420	0.07596612
62	0xbe0bcca0	-0.13652277
63	0xbe846295	-0.25856462
64	0x3e5bcc39	0.21464624
65	0x3d9eb915	0.07750145
66	0xbe499567	-0.19685899
67	0x3e77112d	0.24127646
68	0xbe73f706	-0.238247
69	0x3ebbd76b	0.36687788
70	0xbe66fee1	-0.22558166
71	0x3da94037	0.08264201
72	0x3d0fe1c0	0.0351274
73	0x3d3e5bf5	0.046474416
74	0x3e0b8a7a	0.13627043
75	0xbcd9e496	-0.026598256
76	0xbe6094a9	-0.2193171
77	0x3cfdd502	0.03098536
78	0xbd25c965	-0.040475268
79	0xbc781ae0	-0.015143126
80	0xbd865d71	-0.06560791
81	0xbe950cf3	-0.29111442
82	0x3e08e874	0.13369924
83	0x3d9f7317	0.077856235
84	0x3eabacfd	0.33530417
85	0xbd0380f0	-0.032105386
86	0xbce5fcf8	-0.028074726
87	0xbcf47bfa	-0.029844273
88	0xbd1d2427	-0.038364556
89	0xbc1bbd19	-0.009505534
90	0x3af78169	0.0018883172
91	0x3e673ce4	0.22581822
92	0xbe5e1e3f	-0.21691225
93	0xbd71718f	-0.05894619
94	0xbe0d59d1	-0.13803793
95	0xbe3ea2db	-0.18616812
96	0xbde49700	-0.111616135
97	0xbe3eca6b	-0.18631904
98	0xbddd2ea0	-0.10799909
99	0x3e465128	0.19366896
100	0xbe5599bc	-0.20859426
101	0x3d6addff	0.05734062
102	0xbe4d9804	-0.2007752
103	0x3e19a9fa	0.15006247
104	0x3d720b14	0.059092596
105	0x3dfaedd6	0.12252395
106	0xbdb8cd65	-0.09023551
107	0xbd160c08	-0.036632568
108	0x3dafce37	0.08584254
109	0xbe4d089c	-0.20022815
110	0x3da3cc75	0.079979815
111	0xbebf0de7	-0.37315294
112	0xbd0a324f	-0.033739384
113	0xbe02f3f7	-0.12788378
114	0x3ea75606	0.32682818
115	0x3e319325	0.17341287
116	0x3e4afa54	0.19822055
117	0x3d332922	0.0437404
118	0xbedce274	-0.4314152
119	0xbd988d91	-0.07448877
120	0xbcf8de0d	-0.03037932
121	0xbb153a8a	-0.0022770488
122	0xbf146b9b	-0.5797669
123	0x3e6beed5	0.23040326
124	0x3e8f1b67	0.27950594
125	0x3ec8c071	0.3920932
126	0xbd957590	-0.07297814
127	0x3e5eb772	0.21749666
128	0x3de63437	0.11240428
129	0x3e441836	0.1914986
130	0x3c295c9e	0.010337023
131	0x3e438cb1	0.19096638
132	0x3d5f4c56	0.05451616
133	0xbea46582	-0.32108694
134	0xbecf3bbe	-0.40475267
135	0x3dd2ec96	0.102990314
136	0x3e30e995	0.17276604
137	0xbe5c3aea	-0.21506849
138	0xbd2dd012	-0.04243476
139	0x3d78755d	0.0606588
140	0x3ea533a7	0.3226597
141	0xbe35a598	-0.1773895
142	0xbe4dff6c	-0.20116967
143	0x3c4cffd3	0.012512165
144	0x3d9e731f	0.07736801
145	0xbebc725c	-0.36806
146	0xbe9184ea	-0.28421718
147	0xbd8c9ce9	-0.06865866
148	0xbec1ce23	-0.37852582
149	0x3ee529ba	0.44758397
150	0xbe367a44	-0.17820078
151	0x3eee3f4c	0.46532667
152	0x3e096bda	0.13420048
153	0x3e2d2968	0.16910326
154	0xbe8dcf52	-0.27697235
155	0x3b847f0c	0.0040434655
156	0x3cbe4570	0.02322647
157	0x3e29df39	0.16589059
158	0xbe1e6248	-0.15467179
159	0xbd15f830	-0.036613643
160	0x3de4ce01	0.111721046
161	0xbd8f034d	-0.069830514
162	0x3eb5f7bb	0.35540566
163	0xbdac2a05	-0.08406452
164	0x3d3c5135	0.045975883
165	0xbe8c2dfa	-0.27378827
166	0xbe06f6b8	-0.13180053
167	0xbe7098e8	-0.23495829
168	0xbc993a0c	-0.018704437
169	0x3e3b4289	0.182871
170	0x3e9fff43	0.31249437
171	0xbe808ccd	-0.25107422
172	0xbe14510c	-0.14484042
173	0x3c413797	0.011793039
174	0xbe133ec9	-0.1437942
175	0xbdd80faf	-0.105498664
176	0xbd06275f	-0.03275239
177	0xbd6a9b24	-0.05727686
178	0x399d8120	0.0003004158
179	0x3d0e3989	0.03472284
180	0x3d136377	0.03598353
181	0xbe94dc37	-0.2907426
182	0x3ed7691b	0.42072377
183	0xbdf5aa5a	-0.119953826
184	0xbbba8d54	-0.005693117
185	0xbe231e06	-0.15929422
186	0x3ea9f3ed	0.33193913
187	0xbe734cbe	-0.23759744
188	0xbd600955	-0.0546964
189	0x3e221851	0.15829588
190	0x3e28a22a	0.1646811
191	0xbe9ab211	-0.3021398
192	0xbe571b12	-0.2100642
193	0x3e1e8bc1	0.15483
194	0xbe4bf59f	-0.19917916
195	0xbdc9ca73	-0.09853067
196	0x3d99034b	0.07471331
197	0x3e88566d	0.26628438
198	0x3e5a00e1	0.21289398
199	0x3e21ae93	0.15789251
200	0x3d1572d0	0.036486447
201	0xbee2d728	-0.44304776
202	0x3e67460b	0.22585313
203	0x3ee81510	0.4532857
204	0xbe3024ce	-0.1720154
205	0xbe97e75a	-0.29668695
206	0xbe4269f7	-0.18985735
207	0xbca8e1ba	-0.020615447
208	0x3d9276f5	0.071515955
209	0xbe9cdf76	-0.30639237
210	0xbd9ebaa4	-0.077504426
211	0x3e23fab4	0.16013604
212	0xbe9396cd	-0.2882599
213	0x3e4e3682	0.2013798
214	0x3ee07a34	0.43843234
215	0xbe60df05	-0.21960075
216	0x3e2a7e19	0.16649665
217	0x3e56ea44	0.20987803
218	0xbe32c7df	-0.17459057
219	0xbe63acd4	-0.22233897
220	0x3dbc6eb2	0.09200801
221	0xbd107186	-0.035264514
222	0xbe7f83e4	-0.24952656
223	0x3cfa38b1	0.03054461
224	0x3e544b2c	0.20731801
225	0xbd988696	-0.07447545
226	0xbe95df26	-0.2927181
227	0x3ebecb22	0.37264353
228	0x3e87b241	0.26503184
229	0xbeb8436a	-0.35988933
230	0x3c563652	0.013074474
231	0x3e2fe255	0.17176183
232	0xbdddd1a2	-0.10831
233	0xbcc977be	-0.02459323
234	0x3e49a43b	0.19691555
235	0x3dbf5362	0.09342076
236	0xbe86dc4e	-0.26339954
237	0x3dfa85d0	0.12232554
238	0xbea4c95d	-0.32184878
239	0x3e07da95	0.13266976
240	0xbdfee9cc	-0.12446937
241	0xbdd7a442	-0.105293766
242	0x3e8c225c	0.27369964
243	0xbc832006	-0.01600648
244	0x3e4a4820	0.19754076
245	0xbd06802f	-0.03283709
246	0xbe27cb1f	-0.16386078
247	0x3d8b437f	0.06799983
248	0xbdf30e97	-0.11868017
249	0xbd6e1a28	-0.058130413
250	0x3e1ce891	0.15323092
251	0xbd538ad3	-0.051646065
252	0x3eb3575c	0.35027587
253	0xbe577951	-0.21042372
254	0x3e4792e2	0.19489625
255	0xbbd4041e	-0.0064702174

bias f4 [32]
0	0xbcebce17	-0.028784795
1	0xbde8b689	-0.11362941
2	0xbd437ffa	-0.04772947
3	0x3db82e14	0.08993164
4	0xbdb41065	-0.087921895
5	0xbdfad976	-0.12248509
6	0xbed0b75a	-0.40764886
7	0xbd9d13e2	-0.07669808
8	0xbd81d523	-0.06339481
9	0xbd288afb	-0.041148167
10	0xbedf665d	-0.43632784
11	0xbb291eb4	-0.0025805654
12	0xbdaf7696	-0.0856754
13	0xbe283b37	-0.16428839
14	0xbdda79ad	-0.10667739
15	0xbd455fb8	-0.048186988
16	0xbe0e5816	-0.1390079
17	0xbcf57d56	-0.029966991
18	0xbe39f3e3	-0.18159442
19	0xbed9bd72	-0.42527348
20	0xbd5caf1d	-0.05387794
21	0xbdbc4db4	-0.09194508
22	0xbec4ecd9	-0.3846195
23	0xbedf38fb	-0.4359816
24	0xbd56300f	-0.052291926
25	0xbd7b5888	-0.061363727
26	0xbd897429	-0.06711609
27	0xbd5890bb	-0.0528724
28	0xbe76ae75	-0.24089988
29	0xbea6a9dd	-0.3255147
30	0xbcbd6ddc	-0.023123674
31	0xbe41dd87	-0.18932162

weight f4 [64, 1568]
0	0x3d6a7693	0.057241987
1	0x3d516456	0.05112108
2	0x3d4ecbf2	0.050487466
3	0x3d57f317	0.052722063
4	0x3da0a446	0.07843833
5	0x3d5455fe	0.05183982
6	0x3d89dc4d	0.06731472
7	0xbb9c0c57	-0.004762213
8	0x3d1e5168	0.038651854
9	0x3d0e42c8	0.034731656
10	0x3cf80231	0.030274482
11	0x3d116697	0.035498228
12	0x3d6964b8	0.05698082
13	0x3dae8a5c	0.08522484
14	0xbc6074b8	-0.013699703
15	0xbb4b28ee	-0.0030999738
16	0x3d06a263	0.032869708
17	0x3d4562c5	0.048189897
18	0x3d5cd95a	0.05391822
19	0x3c7e52d5	0.015522678
20	0x3d28e732	0.04123611
21	0x3b7ac036	0.003826154
22	0x3b8684b5	0.0041051754
23	0xbcc06bba	-0.023488868
24	0xbc255d66	-0.010093069
25	0x3b764bb4	0.0037581744
26	0x3cd6f950	0.026241928
27	0x3c6b3daf	0.014357968
28	0x3ced3580	0.028956175
29	0xbd0981fa	-0.03357122
30	0x3bbbcb12	0.005730995
31	0x3d1e190e	0.038598113
32	0xba316f64	-0.00067686127
33	0x3d4761fe	0.048677437
34	0x3da3a6c2	0.07990791
35	0xbd01181d	-0.031517137
36	0xbc6a31f7	-0.014294139
37	0xbb957ea0	-0.004562214
38	0xbbd97cb4	-0.00663718
39	0x3ce005ab	0.027346453
40	0x3d390a0b	0.045175593
41	0x3d5e2ca1	0.05424178
42	0xbcdd1d56	-0.026991528
43	0xbb557d0a	-0.003257575
44	0x3c2327c2	0.0099582095
45	0xbd1d1021	-0.03834546
46	0xbc935647	-0.017985476
47	0x3d25ef28	0.04051128
48	0xbb961009	-0.0045795483
49	0x3d4b920f	0.04969984
50	0x3b9be1fe	0.004757165
51	0xbd3eb516	-0.046559416
52	0xbdabd0c7	-0.083894305
53	0x3c9d668b	0.019213935
54	0xbdae5ed1	-0.085141785
55	0x3de9782d	0.11399875
56	0xbcc0589c	-0.023479752
57	0xbd08a993	-0.033364844
58	0xbcfdb0c3	-0.030968076
59	0xbd572a2f	-0.052530464
60	0xbba456b2	-0.0050152177
61	0xbd04eaf6	-0.03245064
62	0x3dc81006	0.09768681
63	0xbd92a8ba	-0.07161088
64	0x3cbd1f02	0.023086075
65	0x3c48fbf4	0.012267102
66	0xbcdfa5b8	-0.0273007
67	0x3caf97f1	0.021434756
68	0xbc880c01	-0.016607286
69	0x3cd75ada	0.026288439
70	0xbd479243	-0.04872347
71	0x3d026b23	0.031840455
72	0x3cb60d92	0.022223268
73	0x3c59e858	0.013300024
74	0x3cecc684	0.028903253
75	0x3d16eff2	0.036849923
76	0xbd37e4af	-0.044895824
77	0xbd526154	-0.05136235
78	0xbc4f5edb	-0.012656893
79	0x3d62945e	0.055317275
80	0x3d93bbc5	0.072135486
81	0x3cf50734	0.029910661
82	0x3d37051d	0.04468261
83	0xbc12f979	-0.008970612
84	0xbd9955b4	-0.0748705
85	0x3d1c8f77	0.038222756
86	0x3cc7d1b1	0.02439198
87	0x3dd3fddb	0.103511535
88	0x3d8d698d	0.06904898
89	0xbd24aab3	-0.040201854
90	0xbc087c67	-0.008330441
91	0xbce8869a	-0.028384496
92	0x3aabee7d	0.001311734
93	0xbc10ae89	-0.008830675
94	0x3ddac9f2	0.10683049
95	0x3cb619ff	0.022229193
96	0xbbbd3dc5	-0.005775186
97	0xbc5c3f1f	-0.013442784
98	0x3cbb5003	0.022865301
99	0x3d3d15b1	0.046163265
100	0x3d06e16d	0.032929827
101	0x3c8b096f	0.016972272
102	0x3bed2fbc	0.0072383564
103	0xbc9bb227	-0.019005848
104	0xbb9b7fb8	-0.00474545
105	0x3ca49af1	0.020093413
106	0x3bd07923	0.006362097
107	0x3d8a4eaf	0.06753289
108	0x3b4a38ee	0.0030856687
109	0x3ad735b5	0.0016419204
110	0x3d00d512	0.0314532
111	0x3c13f788	0.009031184
112	0x3bcacf24	0.006189244
113	0x3cb3edf1	0.021964045
114	0x3caa7cb4	0.020811416
115	0xbb887ef0	-0.0041655228
116	0x3ad362d9	0.0016127481
117	0x3ca36bf8	0.019948944
118	0x3d0b5374	0.034015134
119	0xbbb6f9e8	-0.0055839904
120	0x3d2c6ab5	0.04209395
121	0x3c4b0d20	0.012393266
122	0xbbb7f55c	-0.005613966
123	0xbb4c28e0	-0.0031152293
124	0x3cbb67bf	0.022876618
125	0x3cdb27a2	0.026752297
126	0xbbb240d6	-0.005439858
127	0x3cb8bc39	0.022550689
128	0x3ba701fd	0.0050966726
129	0x3ceef07b	0.029167404
130	0xbc06dfb6	-0.008232048
131	0x3a9bef72	0.0011896922
132	0x3c5758e9	0.013143756
133	0x3ba5c214	0.0050585363
134	0x3be98ef9	0.0071276394
135	0xbc23b0ed	-0.009990913
136	0xbc959027	-0.018257214
137	0x3ca31987	0.019909633
138	0x3ce46e47	0.027884616
139	0x3c86e0fd	0.016464705
140	0xbce751f2	-0.028237317
141	0xbbbd5dbe	-0.005778997
142	0x3bdaecd1	0.0066810627
143	0x3c27329b	0.010204936
144	0xbb832700	-0.004002452
145	0xbd18acd6	-0.037274204
146	0x3b805bab	0.0039171777
147	0x3d044352	0.032290764
148	0x3d638d7b	0.05555485
149	0x3d4ed640	0.050497293
150	0x3d48d84d	0.049034405
151	0x3d77f93c	0.060540423
152	0x3c455135	0.012043287
153	0x3d65cbc6	0.056102537
154	0x3cc636f6	0.02419613
155	0x3b42fe6b	0.0029753696
156	0x3d3e1b7d	0.046412934
157	0x3cd4f296	0.02599458
158	0x3c90f266	0.01769371
159	0x3ada4350	0.0016652141
160	0x3d4dfd2e	0.05029028
161	0x3cde0b2a	0.027104933
162	0xbb87fef2	-0.004150265
163	0x3c4025d2	0.011727767
164	0x3c722dcc	0.014781427
165	0x3cbab73b	0.02279245
166	0x3c022ffd	0.007946012
167	0x3bdf2598	0.0068099014
168	0x3bee6843	0.0072756126
169	0xbc366d65	-0.01113448
170	0x3b53c426	0.0032312959
171	0xbcc1a58b	-0.023638507
172	0xbc463490	-0.012097493
173	0x3d51c0bd	0.0512092
174	0x3c751e10	0.014960781
175	0x3c5c5019	0.013446831
176	0xba857b0f	-0.0010183769
177	0xbb506bbc	-0.0031802496
178	0x3b8e7478	0.0043473803
179	0x3c820a7a	0.015874136
180	0x3d14cfc1	0.036330942
181	0x3d737233	0.05943508
182	0x3d174502	0.036931045
183	0x3c9136e4	0.01772637
184	0xbd1fffdb	-0.039062362
185	0xbb55f57e	-0.0032647545
186	0x3c3e6f07	0.011623151
187	0x3b572ae8	0.003283197
188	0x3d29af18	0.041426748
189	0x3bac8fec	0.0052661803
190	0x3c76f086	0.015071994
191	0x3c0cb54a	0.008588145
192	0xbccbe681	-0.024890186
193	0xbd189de1	-0.03725994
194	0xbc8e4c61	-0.017370405
195	0x3b5529af	0.0032526066
196	0x3d84b83e	0.06480454
197	0x3e0ab19b	0.13544314
198	0x3e09b918	0.13449514
199	0xbd466e47	-0.048445012
200	0xbd963e9a	-0.07336159
201	0xbdce256b	-0.10065731
202	0x3d2affbc	0.041747794
203	0x3d50bd69	0.050961886
204	0x3d71aca8	0.05900255
205	0x3da51a2f	0.08061635
206	0xbcc3d521	-0.023905339
207	0xbd8f12fd	-0.069860436
208	0xbd7aabbc	-0.061198935
209	0xbd85740a	-0.06516273
210	0x3cbe3445	0.023218283
211	0xbc56302e	-0.01307301
212	0x3d9b2a7d	0.07576463
213	0x3adb015a	0.0016708777
214	0x3ca5945c	0.020212345
215	0x3b73c563	0.003719651
216	0x3b9629ae	0.0045826053
217	0xbd8dcf2e	-0.06924282
218	0xbb82a693	-0.0039871424
219	0x3d49fbd8	0.049312443
220	0xbc61a84e	-0.013773037
221	0x3bcb2ad8	0.0062001757
222	0xbd3a69fd	-0.045511235
223	0xbbf74364	-0.0075458754
224	0xbc32e5e4	-0.010919068
225	0x3d61970a	0.055075683
226	0x3d4ef916	0.050530516
227	0x3d384a09	0.04499248
228	0x3cf1a67d	0.029498333
229	0xbdbdded1	-0.092710145
230	0x3c25c036	0.010116627
231	0xbc7d155e	-0.015446989
232	0x3de3b85e	0.111191496
233	0x3dc1bdc3	0.09460022
234	0x3dbfa3f1	0.09357441
235	0x3d936ac7	0.071981005
236	0xbca1abaa	-0.019735176
237	0x3d846aa0	0.064656496
238	0xbb1c98ac	-0.002389471
239	0x3d7863f7	0.06064221
240	0x3e079193	0.13239126
241	0x3c8f303e	0.017479058
242	0x3d876f66	0.066130444
243	0xbc4b5798	-0.012411021
244	0x3c14dbcb	0.009085606
245	0x3e0df09b	0.13861315
246	0xbd02d423	-0.03194059
247	0xbd020929	-0.031747017
248	0xbd383690	-0.04497391
249	0x3d86f9c9	0.065906115
250	0xbd67ff23	-0.0566398
251	0x3d9129a9	0.07088024
252	0xbc5689c1	-0.0130943665
253	0xbdc04781	-0.09388638
254	0x3d16eb1e	0.03684532
255	0xbdefa6e7	-0.11701756

bias f4 [64]
0	0x3dca64b4	0.09882489
1	0x3dca78fa	0.09886356
2	0xbdc3fbbf	-0.09569501
3	0x3d6251a9	0.05525366
4	0x3cc5ad90	0.024130613
5	0x3ce29ee5	0.027663657
6	0xbc774de6	-0.015094256
7	0x3d51fb63	0.05126513
8	0x3dbfb3af	0.09360444
9	0xbd17080b	-0.036872905
10	0xbd841c24	-0.0645068
11	0x3de82199	0.11334533
12	0xbc55cda7	-0.01304952
13	0x3d584b3f	0.052806135
14	0x3d3458c6	0.044029973
15	0x3d90fe38	0.070797384
16	0xbde46441	-0.111519344
17	0xbcd6fb5c	-0.026242904
18	0xbb0cf2cc	-0.0021507023
19	0xbd3aa7c0	-0.045570135
20	0x3d9e0bc1	0.07717086
21	0x3b8a3dae	0.0042187786
22	0x3d1ec08c	0.038757846
23	0xbd3c6eb5	-0.046004016
24	0x3c730e50	0.014834955
25	0xbd957b47	-0.07298904
26	0x3bbfae26	0.0058496175
27	0x3c8404e2	0.01611561
28	0xbce87fff	-0.028381346
29	0x3c68eaee	0.014216168
30	0xbc6e3b02	-0.014540436
31	0x3c8f4695	0.01748971
32	0x3da52c2d	0.080650665
33	0xbcba5b01	-0.022748472
34	0x3d3d8767	0.046271708
35	0x3bc74e1e	0.0060823103
36	0xbdee40e0	-0.11633468
37	0x3dce8d8a	0.1008559
38	0x3bf774d8	0.0075517707
39	0xbdb150ad	-0.08657966
40	0x3d545218	0.051836103
41	0xbc1df4d3	-0.00964089
42	0x3d6f0265	0.058351893
43	0xbd03ad4b	-0.032147687
44	0x3c91db84	0.017804869
45	0xbdd8f06c	-0.10592732
46	0xbe104592	-0.14089039
47	0x3d173e2a	0.03692452
48	0x3d8c29a6	0.06843881
49	0xbe0da9c4	-0.13834292
50	0xbc01ce65	-0.007922743
51	0x3d885e2f	0.06658589
52	0x3e04cebf	0.12969492
53	0x3d608bcc	0.05482082
54	0x3dd1c1d2	0.102420464
55	0xbcb8f8a2	-0.022579495
56	0x3d820ea4	0.06350449
57	0x3deb4407	0.114875846
58	0x3dc979e3	0.09837701
59	0xbde7a3fd	-0.11310575
60	0xbdb1daeb	-0.086843334
61	0xbdb72e86	-0.089444205
62	0xbcb18999	-0.021672057
63	0x3d354cba	0.044262625

weight f4 [64, 64]
0	0x3c866e6e	0.016410079
1	0x3ddec0c0	0.10876608
2	0xbdc797f9	-0.09745783
3	0xbcb5d704	-0.022197254
4	0x3cf9b436	0.03048144
5	0x3de98d17	0.11403864
6	0x3d87da39	0.066334195
7	0xbd434d7a	-0.04768131
8	0x3de881c5	0.113528766
9	0x3d6cefbb	0.057845812
10	0xbda6f64e	-0.08152448
11	0xbc956c74	-0.018240191
12	0x3d591f4b	0.05300836
13	0x3c50ca67	0.012743569
14	0xbdc23cbd	-0.09484241
15	0xbc7bf47b	-0.015378113
16	0x3d65d002	0.056106575
17	0xbd83a78e	-0.06428443
18	0x3dde4f03	0.10854914
19	0x3dc28a46	0.0949903
20	0xbda77655	-0.08176867
21	0xbd215bf6	-0.03939434
22	0x3d09bd7c	0.033627972
23	0x3d8dd6c2	0.069257274
24	0xbc9e0caf	-0.019293157
25	0x3d3abfcb	0.045593064
26	0x3ddf2bcd	0.10897026
27	0xbd6d557a	-0.057942845
28	0x3da5093a	0.080584005
29	0xbd6c6ea3	-0.0577227
30	0xbde01ac0	-0.10942602
31	0x3c7fb49d	0.015607026
32	0xbd1830f8	-0.037156075
33	0xbda4cf2e	-0.08047329
34	0x3b97c827	0.0046320143
35	0x3ddc000f	0.10742199
36	0xbd604ca9	-0.05476061
37	0xbcaa3c1e	-0.02078062
38	0x3cfc5a39	0.03080474
39	0x3cb2f16d	0.021843636
40	0x3d6cce8d	0.05781417
41	0x3d911fb2	0.070861235
42	0xbd988fee	-0.074493274
43	0x3d1660b2	0.03671331
44	0xbd93be2e	-0.07214008
45	0x3c6f4775	0.014604439
46	0xbd224074	-0.03961225
47	0xbd466906	-0.048440002
48	0xbc102ce8	-0.008799769
49	0xbd857479	-0.06516356
50	0xbd9ea892	-0.07746996
51	0x3d622581	0.055211548
52	0xbc58009a	-0.013183737
53	0x3df85a4a	0.12126596
54	0xbdd4545b	-0.10367652
55	0xbd9accba	-0.0755858
56	0x3dc4d343	0.096106075
57	0xbd28e48a	-0.041233577
58	0x3cc00f55	0.02344481
59	0x3bd84c9f	0.006600931
60	0xbd92fdd7	-0.07177322
61	0xbce7d2b7	-0.028298719
62	0xbc0f5d0e	-0.008750213
63	0xbd524348	-0.051333696
64	0x3ddc1160	0.107455015
65	0x3e0188d8	0.12649858
66	0xbe05db8c	-0.13072032
67	0x3e672542	0.22572806
68	0xbd7998ac	-0.060936615
69	0xbc3ac21f	-0.011398821
70	0xbda413b4	-0.080115706
71	0x3e4d535a	0.20051327
72	0xbc870cfc	-0.016485684
73	0xbd4d39b8	-0.050103873
74	0xbd8b58cf	-0.06804048
75	0x3e466313	0.19373731
76	0x3c9a0c63	0.018804735
77	0xbdc3b4ac	-0.09555945
78	0x3de1b545	0.110209025
79	0x3e5f67d0	0.21816945
80	0x3c206022	0.009788545
81	0xbe13da81	-0.14438821
82	0xbde814c3	-0.11332085
83	0xbdcfd0d7	-0.10147255
84	0x3cceb841	0.025234343
85	0x3cf932df	0.030419765
86	0x3d1ec418	0.03876123
87	0x3dc5f2bb	0.09665438
88	0x3d5ffdf1	0.054685537
89	0xbe5b6f34	-0.2142914
90	0x3e46c616	0.19411501
91	0xbcf95670	-0.030436724
92	0xbdf26b9f	-0.11836933
93	0x3e3bf596	0.18355402
94	0x3c0708ab	0.008241813
95	0xbe1b7759	-0.15182246
96	0x3e1796d2	0.14803627
97	0xbd485074	-0.04890485
98	0xbcf1cdfa	-0.029517163
99	0xbce5a73b	-0.028033843
100	0xbd23ca37	-0.03998777
101	0x3deec0a1	0.11657835
102	0x3dc7cfcb	0.0975643
103	0xbd89066c	-0.06690678
104	0x3df23e2c	0.118282646
105	0x3cb48e4e	0.022040512
106	0x3d55c19a	0.052186586
107	0xbdc5e5c2	-0.096629634
108	0xbd717081	-0.058945183
109	0xbe0cf605	-0.13765724
110	0xbdd91c1b	-0.10601064
111	0x3ccc24f2	0.02491996
112	0x3e8300aa	0.25586444
113	0xbe0f5cf6	-0.14000306
114	0x3dfca48e	0.12336074
115	0x3e716132	0.23572233
116	0x3defe81e	0.11714195
117	0x3dbc1ca8	0.09185153
118	0x3db19672	0.08671273
119	0xbc891c13	-0.01673702
120	0x3e364e66	0.17803344
121	0x3e56655a	0.209371
122	0x3d7d71f1	0.06187624
123	0xbe1874b8	-0.14888275
124	0xbe21954b	-0.15779607
125	0xbe0ba6a0	-0.13637781
126	0xbc664a75	-0.014055838
127	0x3da11c70	0.07866752
128	0xbcbb0a7c	-0.022832148
129	0xbdb9d4ab	-0.09073766
130	0x3dd8aa3b	0.10579344
131	0x3d58a7a4	0.05289425
132	0xbcbe997c	-0.023266546
133	0x3da468f0	0.08027828
134	0xbcd89b7b	-0.026441326
135	0x3d66f573	0.056386422
136	0xbda2c836	-0.079483435
137	0xbdf0d628	-0.11759597
138	0xbd3c3757	-0.045951214
139	0xbdc783d6	-0.097419426
140	0x3da69f7e	0.081358895
141	0xbdd7c233	-0.105350874
142	0xbd89c13c	-0.0672631
143	0xbdd14980	-0.10219097
144	0xbd9364fb	-0.07196995
145	0xbc33dcd6	-0.010977944
146	0xbd8fb0d2	-0.07016148
147	0x3d3f956a	0.04677335
148	0x3d9e1329	0.07718498
149	0x3dc649f2	0.09682073
150	0xbdbc3cf7	-0.091913156
151	0x3d5591b8	0.05214092
152	0xbd7ee49f	-0.06222975
153	0x3db46b50	0.08809531
154	0xbcf03cac	-0.029325806
155	0xbd523bcf	-0.05132657
156	0x3da45522	0.0802405
157	0x3d9044a6	0.07044344
158	0xbcb2e74a	-0.021838803
159	0x3bf3a300	0.0074352026
160	0x3c98008a	0.018554945
161	0x3d9c0282	0.07617666
162	0xbdddcd9a	-0.10830231
163	0x3da25bec	0.07927689
164	0x3decd2df	0.11563658
165	0xbdafb39f	-0.08579182
166	0xbddf01ca	-0.10889013
167	0x3c81234c	0.015763901
168	0x3c967d73	0.018370366
169	0x3dbaa893	0.09114184
170	0xbd6f0495	-0.05835398
171	0xbdcca6c4	-0.099927455
172	0x3d23dbe8	0.04000464
173	0xbd3c30b1	-0.045944873
174	0xbdd5faa1	-0.10448194
175	0xbd0679cd	-0.032831002
176	0x3d0ad0e4	0.03389062
177	0xbcd1aa45	-0.025593886
178	0x3d9f342f	0.07773625
179	0x3dd27576	0.1027631
180	0xbd8f3832	-0.0699314
181	0x3b820eff	0.003969073
182	0xbd70f959	-0.058831546
183	0x3d6ddfe0	0.058074832
184	0xbdf02f8c	-0.11727819
185	0x3d89a46d	0.06720815
186	0xbdea8177	-0.11450475
187	0x3d57136e	0.052508764
188	0xbd628b5b	-0.05530868
189	0xbd2357d1	-0.03987867
190	0xbd7bddc6	-0.061490797
191	0xbcf01e85	-0.029311428
192	0x3c892484	0.016741045
193	0xbd4a59e0	-0.049402118
194	0xbce82dd7	-0.02834217
195	0xbd9b515a	-0.07583876
196	0x3bd4a634	0.0064895395
197	0x3d669b2d	0.05630033
198	0xbd9d5c40	-0.07683611
199	0x3bb41c31	0.0054965247
200	0xbd7b35e4	-0.06133069
201	0x3d567976	0.052361928
202	0xbca181cc	-0.019715212
203	0x3c8a9ae7	0.016919566
204	0x3cdcf50d	0.026972318
205	0x3dcc7e68	0.099850476
206	0x3da1964e	0.078899965
207	0x3ce3c599	0.027804183
208	0xbb825ef1	-0.003978603
209	0xbda82973	-0.08211031
210	0x3d886190	0.066592336
211	0x3d89e75f	0.06733584
212	0xbd07edf8	-0.03318593
213	0xbdbcdc53	-0.09221711
214	0xbd90be93	-0.07067599
215	0x3c3bb636	0.011457017
216	0x3dde7e38	0.10863918
217	0x3d049cc0	0.03237605
218	0x3cfa18b5	0.03052936
219	0x3d9213b2	0.07132663
220	0xbd94e3a4	-0.072699815
221	0x3cd3b12f	0.025841324
222	0xbd99f879	-0.075180955
223	0xbdd8f7c8	-0.105941355
224	0xbd51c36e	-0.051211767
225	0xbd815d99	-0.063166805
226	0x3d74af4c	0.05973749
227	0xbaa3db8d	-0.0012501344
228	0x3d6ca239	0.057771895
229	0x3d80e472	0.062935725
230	0x3cea9ecd	0.028640175
231	0xbdbe241a	-0.092842296
232	0xbdd4911c	-0.1037924
233	0xbcaa9e08	-0.020827308
234	0xbcd9b3e8	-0.026575044
235	0x3d426030	0.047455013
236	0x3c86be45	0.01644815
237	0x3daeb278	0.08530134
238	0xbdcbddf2	-0.09954442
239	0x3d8231b2	0.06357135
240	0xbdcc42aa	-0.09973653
241	0x3db4c011	0.08825696
242	0xbd1eb0c0	-0.03874278
243	0x3c7eb61d	0.015546349
244	0x3dc763de	0.09735845
245	0x3d8ee2ea	0.06976874
246	0xbd1b0fe4	-0.03785695
247	0x3d2f5591	0.04280621
248	0xbd9cb4ea	-0.07651694
249	0xbd60d67e	-0.054892056
250	0x3c01b7b0	0.00791733
251	0x3cdbfd1e	0.026854094
252	0xbd6d4b20	-0.057932973
253	0x3c795b97	0.015219591
254	0xbdc8072c	-0.09766993
255	0x3d94f253	0.07272782

bias f4 [64]
0	0x3e125f18	0.14294088
1	0x3e7e0ee5	0.2481037
2	0x3bb7f3f7	0.0056137997
3	0x3d9d3727	0.07676535
4	0xbdcb1f87	-0.09918123
5	0x3c8c6280	0.017136812
6	0xbd64d792	-0.055869646
7	0x3dcf3039	0.101166196
8	0xbca3e4f4	-0.020006634
9	0xbe0a0e45	-0.13482006
10	0xbe6ccd53	-0.231252
11	0x3e4236b2	0.18966177
12	0xbafe6786	-0.0019409514
13	0xbd27bf9d	-0.04095422
14	0xbe592202	-0.21204379
15	0x3db525d3	0.08845105
16	0xbd9e1797	-0.07719343
17	0xbe08961e	-0.13338515
18	0xbddd7767	-0.1081379
19	0x3e2ef978	0.17087352
20	0x3d8de4fc	0.06928441
21	0x3d9f31f7	0.07773202
22	0x3e7382d9	0.23780383
23	0xbdfcacc3	-0.12337639
24	0xbd4236b9	-0.04741547
25	0x3c01faec	0.00793336
26	0x3e2e5d45	0.17027767
27	0x3d820eec	0.06350502
28	0x3d44ea59	0.048075054
29	0x3e89f0f4	0.26941645
30	0x3e900933	0.28132018
31	0x3e4fb4a8	0.20283759
32	0xbdb7eff7	-0.089813165
33	0xbd157327	-0.03648677
34	0x3d34a198	0.04409942
35	0xbda3a678	-0.07990736
36	0x3de3785f	0.11106943
37	0xbd745236	-0.059648715
38	0x3de9cc56	0.11415927
39	0xbdfe6020	-0.12420678
40	0xbdc8aad5	-0.097982086
41	0x3da96547	0.0827127
42	0xbd4fa95b	-0.05069862
43	0xbde20304	-0.110357314
44	0xbe57bb85	-0.21067627
45	0xbdb39813	-0.0876924
46	0xbee5ecce	-0.4490723
47	0x3e1cb80c	0.15304583
48	0x3cc36a4e	0.023854401
49	0x3ea4b288	0.3216746
50	0x3d9c2d3c	0.07625815
51	0xbe1a1235	-0.15046008
52	0x3d9a5007	0.07534795
53	0x3d034af6	0.03205391
54	0x3e44daa1	0.19224025
55	0xbd1bf451	-0.038074795
56	0x3dd1378e	0.10215674
57	0x3e50111b	0.20319025
58	0x3cd88389	0.026429908
59	0x3d7f4ab0	0.062327087
60	0x3d7518e6	0.059838198
61	0xbe1a1afa	-0.15049353
62	0xbd499dc4	-0.049222723
63	0x3cfbd94f	0.03074327

weight f4 [10, 64]
0	0x3d421b29	0.047389183
1	0x3e01235a	0.12611142
2	0x3b13af11	0.0022534768
3	0x3caba7df	0.02095407
4	0xbc89fdc7	-0.016844643
5	0xbb9c3b99	-0.004767847
6	0xbc256bed	-0.010096532
7	0x3ccbfdad	0.024901235
8	0x3c653ec6	0.013992017
9	0xbd9afd3f	-0.07567834
10	0xbd8db745	-0.069197215
11	0x3d5a1a20	0.05324757
12	0x3d63ec2c	0.055645153
13	0xbd0ea45d	-0.034824718
14	0xbda15981	-0.078784
15	0x3d6c3741	0.05766988
16	0xbd7cb874	-0.061699346
17	0xbd8caddb	-0.06869098
18	0xbd8a80c7	-0.067628436
19	0x3dd5aaa8	0.10432941
20	0x3ce64b18	0.02811198
21	0x3ce94a41	0.02847779
22	0x3daea586	0.08527665
23	0xbd05a981	-0.032632355
24	0xbd87def6	-0.06634323
25	0xbd2d4313	-0.042300295
26	0xbb5b3d8a	-0.0033453428
27	0xbcf035b0	-0.029322475
28	0x3c1ecde3	0.009692642
29	0x3dc4116f	0.09573638
30	0x3d9f6e4f	0.077847116
31	0x3d8fb8d0	0.07017672
32	0x3b02f537	0.0019982585
33	0x3d5362cc	0.051607892
34	0x3c52d888	0.012869008
35	0xbcf8f0d3	-0.030388271
36	0x3ac4e58f	0.0015022027
37	0xbc6ebee2	-0.014571877
38	0x3cb28a73	0.021794533
39	0xbcf72202	-0.030167583
40	0xbdcb4ddd	-0.099269606
41	0x3c22841d	0.009919194
42	0xbcccb46c	-0.024988376
43	0xbd04334a	-0.032275476
44	0xbdd9e783	-0.106398605
45	0x3d2eb347	0.04265144
46	0x3cb539cb	0.022122284
47	0x3c56c144	0.013107602
48	0xbd36ccf4	-0.044629052
49	0x3d4bcbf5	0.049755055
50	0x3c385a72	0.011252033
51	0xbcea96fb	-0.028636446
52	0x3c9217bf	0.017833589
53	0xbc4ed041	-0.012622894
54	0xb9db0c58	-0.00041780132
55	0xbce20e9d	-0.027594859
56	0xbbcfb489	-0.00633866
57	0xba329244	-0.00068119564
58	0xbda915c4	-0.082561046
59	0x3d2994f0	0.041401803
60	0xbce6745f	-0.028131662
61	0xbcb2bea2	-0.021819416
62	0xbd4a42c2	-0.04938007
63	0x3d94eaec	0.0727137
64	0x3d06f708	0.03295043
65	0x3e01f5a2	0.12691358
66	0x3cc31f6a	0.02381869
67	0x3c228daa	0.009921471
68	0xbd9a2329	-0.075262375
69	0xbb8a5945	-0.0042220675
70	0x3d91f5b7	0.071269445
71	0x3c88b2bd	0.016686792
72	0x3dcce695	0.100049175
73	0xbde2f610	-0.11082089
74	0xbda1c9bf	-0.07899808
75	0x3d51eedf	0.051253196
76	0x3d156fd2	0.036483593
77	0x3cf7a20d	0.030228639
78	0xbd685322	-0.056719907
79	0x3d59d56b	0.053182047
80	0xbd3d45c1	-0.0462091
81	0xbcd86fa3	-0.02642042
82	0xbdca0102	-0.098634735
83	0xbcc8062a	-0.024417002
84	0x3d060eb1	0.032728855
85	0x3cd367a9	0.025806265
86	0x3db716cf	0.08939897
87	0xbd085f0a	-0.03329376
88	0x3d73e588	0.05954507
89	0xbd628a3f	-0.055307623
90	0x3d679897	0.056542005
91	0x3bba6843	0.0056886985
92	0xbce73664	-0.028224178
93	0x3dad09ec	0.08449158
94	0x3d9c8711	0.076429494
95	0x3d5dfb3e	0.05419468
96	0xbc0c26ff	-0.008554219
97	0x3d5b0530	0.053471744
98	0x3d0a0655	0.033697445
99	0xbcc6ac0c	-0.02425196
100	0xbc83b867	-0.01607914
101	0x3c6a0936	0.014284423
102	0x3b3b5556	0.00285848
103	0xbd22e8c6	-0.03977277
104	0xbda7b040	-0.08187914
105	0x3caf88fe	0.021427628
106	0xbc9da713	-0.019244706
107	0xbd5bc06b	-0.0536503
108	0xbdd99add	-0.10625241
109	0x3d927d25	0.07152776
110	0x3cbb7591	0.022883208
111	0x3c7eb8b1	0.015546964
112	0xbd4204a4	-0.047367707
113	0x3d4c3eb6	0.049864493
114	0xbce4adbf	-0.02791488
115	0x3ca49b1e	0.020093497
116	0x3d0186c9	0.03162268
117	0x3d9d73bc	0.0768809
118	0x3cb28d3a	0.021795858
119	0xbd0af060	-0.033920646
120	0x3b59c5ba	0.0033229426
121	0xbc7b309f	-0.015331416
122	0xbda64c8e	-0.081200704
123	0x3d375ebe	0.044768088
124	0x3d6e0344	0.058108583
125	0xbb5b0186	-0.0033417656
126	0xbd02ea66	-0.03196182
127	0x3daf9309	0.085729666
128	0xbce007bc	-0.027347438
129	0xbed92c5e	-0.42416662
130	0xbceb9702	-0.02875853
131	0x3ca02889	0.019550579
132	0x3e13ee77	0.14446436
133	0x3e4c1831	0.19931103
134	0xbe65f33f	-0.22456072
135	0xbdd20e4a	-0.10256632
136	0xbe81293c	-0.25226772
137	0x3e7683fa	0.24073783
138	0x3eafa835	0.3430802
139	0xbe52606b	-0.20544593
140	0xbc8a2991	-0.016865524
141	0x3d0e17c0	0.03469062
142	0x3dfe63cd	0.12421379
143	0xbea78347	-0.32717344
144	0x3e68593e	0.22690293
145	0x3e2e2e15	0.17009766
146	0x3e8e20b9	0.2775934
147	0xbdb4cefb	-0.08828541
148	0xbe3d3627	-0.18477689
149	0xbe5a16cd	-0.2129776
150	0xbe8e97fa	-0.27850324
151	0x3ecfa802	0.40557867
152	0xbe5e53d7	-0.2171167
153	0x3d46ec2d	0.04856508
154	0xbeb2bc8e	-0.3490948
155	0x3dcace8e	0.099026784
156	0xbe804f15	-0.25060335
157	0xbeced243	-0.40394792
158	0xbeb05403	-0.34439096
159	0xbe214136	-0.15747532
160	0x3d6b4e48	0.0574477
161	0xbddb239e	-0.10700153
162	0x3de47180	0.11154461
163	0xbdd6fe59	-0.10497732
164	0xbdbdfc26	-0.09276609
165	0x3dbca508	0.09211165
166	0xbe9b63b7	-0.30349514
167	0x3e5941fa	0.21216574
168	0x3ec5940f	0.38589522
169	0xbd8d61a7	-0.06903391
170	0xbc7c3e08	-0.015395649
171	0x3b5217b4	0.0032057585
172	0x3e8303ed	0.25588933
173	0x3cb7a2cc	0.022416495
174	0x3f23ab80	0.63933563
175	0xbe29fe30	-0.16600871
176	0x3e19e41b	0.15028422
177	0xbe680b51	-0.22660567
178	0xbe462a82	-0.19352153
179	0x3e940eae	0.2891745
180	0xbe3ec2fb	-0.18629067
181	0xbe111caf	-0.14171098
182	0xbe9157ce	-0.28387302
183	0x3e8cd715	0.27507845
184	0xbde3b4e0	-0.111184835
185	0xbe8c816d	-0.27442494
186	0xbdf2e04b	-0.11859187
187	0xbd7a883a	-0.061165072
188	0xbe2039ca	-0.15647045
189	0x3dc4996a	0.09599574
190	0x3e0d2443	0.13783364
191	0xbe2818f7	-0.16415773
192	0xbdebed3c	-0.11519858
193	0xbee262b6	-0.44215935
194	0x3da7b750	0.08189261
195	0x3dd08c75	0.1018304
196	0x3decc9bf	0.115619175
197	0x3e8de4c0	0.27713585
198	0xbe502767	-0.20327531
199	0xbc91519f	-0.017739115
200	0xbe5a2091	-0.21301486
201	0x3eb5dd06	0.3552019
202	0x3e3329f2	0.1749647
203	0xbebbc9ff	-0.36677548
204	0x3e1bda96	0.15220103
205	0x3e9227a6	0.28545874
206	0x3e0ed8e6	0.13949928
207	0xbe4fe799	-0.20303191
208	0x3e6e483c	0.23269743
209	0x3e504b4e	0.20341226
210	0x3ea44cb6	0.32089776
211	0xbdd9bf65	-0.10632209
212	0xbe09011b	-0.13379328
213	0xbd381252	-0.044939347
214	0xbeab2668	-0.3342774
215	0x3e86941d	0.26284876
216	0xbe70a2a0	-0.23499537
217	0x3ce14a6f	0.027501313
218	0xbeb3ac8a	-0.35092574
219	0x3db73958	0.08946484
220	0xbdbd900a	-0.09255989
221	0xbea4bf57	-0.3217723
222	0xbeadae2b	-0.33921942
223	0xbe80cc1f	-0.25155732
224	0x3c32933a	0.010899359
225	0xbe29cc33	-0.16581802
226	0x3dfa3d90	0.12218773
227	0xbdc0920f	-0.094028585
228	0xbdaaac97	-0.083337
229	0xbd11a4c3	-0.03555752
230	0xbe287d4b	-0.16454045
231	0x3d9e2066	0.07721023
232	0x3ec45450	0.38345575
233	0xbdb5b059	-0.08871526
234	0x3dff29d6	0.124591514
235	0x3b27f79a	0.002562976
236	0x3ed64708	0.41851068
237	0xbcec0786	-0.028812181
238	0x3f292894	0.6607754
239	0xbe7ff3e7	-0.24995385
240	0x3d9fd3d7	0.07804077
241	0xbeb34593	-0.35014018
242	0xbe41f63c	-0.18941587
243	0x3e8b9649	0.27263096
244	0xbe6eb8e1	-0.23312713
245	0xbe4bd5d7	-0.19905792
246	0xbe4037fd	-0.18771358
247	0x3e74169e	0.23836753
248	0x3d264c9a	0.040600397
249	0xbe3bff2c	-0.18359059
250	0xbdf3b603	-0.1189995
251	0xbd9e9191	-0.07742608
252	0xbe8ecfda	-0.27892953
253	0x3e565fa1	0.20934917
254	0x3e3d192a	0.1846663
255	0xbe1914e5	-0.14949377

bias f4 [10]
0	0x3da066fb	0.07832142
1	0x3d326067	0.043548968
2	0xbc442d11	-0.011973635
3	0xbd29122f	-0.041277107
4	0xbe20fe9c	-0.15722126
5	0xbdc4b266	-0.09604339
6	0xbe87c42f	-0.26516864
7	0xbe2a5bcc	-0.1663658
8	0xbe4eef4b	-0.2020847
9	0xbd939a39	-0.0720715
