models/neural_network_for_human.pt (torch, 7154 bytes, 5 tensors)

weight f4 [32, 4]
000000 e8 21 5f be 6e 2e 9e 3d d6 03 c9 3c 88 48 c9 3e
       -0.21790278 0.077236995 0.024537962 0.3931315
000010 b4 a8 b7 be 8f 10 00 3e ea bd 28 3e 31 ff b0 3e
       -0.35870898 0.12506317 0.16478696 0.34569696
000020 f9 90 4c 3e a2 69 6e 3e 3e 27 ca be 9d 5e e0 3e
       0.19977178 0.23282483 -0.39483064 0.43822184
000030 e0 39 12 be 58 11 d5 bd 02 4c a2 be 80 8f c6 bc
       -0.1427989 -0.10403699 -0.31698614 -0.024238348
000040 07 0e e3 3e 0e 88 b7 3e f4 31 a1 be b0 98 dd bd
       0.4434664 0.3584599 -0.31483424 -0.108201385
000050 50 d3 46 be 0c 7d a7 3d 84 28 72 3e a4 7d c1 be
       -0.19416547 0.08178148 0.23648268 -0.3779117
000060 d0 44 c9 be 0c bb 93 3d 8c b3 af 3e ee c7 97 be
       -0.39310312 0.07213411 0.3431667 -0.29644722
000070 6f 7a bc be b9 0b c2 3e 50 31 c3 be a2 6a 6b be
       -0.3681216 0.3789957 -0.3812356 -0.22989896
000080 cc 48 0e 3e e0 58 35 bd 5c 63 64 be 40 0f 26 3e
       0.13894957 -0.04427421 -0.22303528 0.16216755
000090 97 ab ab be 33 f4 99 3e 9c cb 1e bd 37 b1 d5 3e
       -0.3352935 0.30069122 -0.038768396 0.41736767
0000a0 16 9c ff be e4 51 f5 be 02 ec ed 3e ac d5 2a be
       -0.49923772 -0.4791404 0.46469122 -0.16683072
0000b0 e3 c7 9c be 49 d0 90 3d 16 c5 a1 be c1 20 4a 3e
       -0.3062125 0.07070977 -0.31595677 0.19739057
0000c0 bb 04 6c 3e 7f cc 85 3e b0 13 db 3e 60 4b 22 3e
       0.2304868 0.2613258 0.42788458 0.15849066
0000d0 f6 83 94 be ea 2f 86 be f0 31 49 be 94 ce 54 3e
       -0.29006928 -0.2620843 -0.19647956 0.20781928
0000e0 8a c5 65 3e d6 94 d6 be f0 af 1b 3e 7c 42 fc 3d
       0.22438636 -0.41910428 0.15203834 0.123173684
0000f0 96 86 30 be 39 ec 99 bd 20 ac 66 be 3c cf c6 3e
       -0.1723884 -0.07515759 -0.22526598 0.38829982
000100 c4 e5 05 be c2 57 70 bd 16 da c5 be e0 dd 73 3e
       -0.1307593 -0.058677442 -0.3864295 0.23815107
000110 e6 30 4e be bb 97 db 3e e8 27 43 bd 49 f9 9e 3e
       -0.20135841 0.428892 -0.04764548 0.31049564
000120 c6 8f fa 3e 84 fa 01 bd 14 96 12 3e 9c 1d df 3c
       0.48937815 -0.03173305 0.14315063 0.027235799
000130 c8 e3 5b be 27 ad 7d be 8c e8 01 3e db 38 fd bd
       -0.2147361 -0.24773084 0.12686366 -0.1236436
000140 a8 e4 12 be ec 12 60 be d8 b1 42 be e8 36 44 3e
       -0.14345038 -0.21882218 -0.19013155 0.1916157
000150 3f 3a cb 3e 78 80 d3 3e e6 38 a6 3e fd b3 05 3e
       0.39692876 0.4130895 0.32465285 0.13056941
000160 4e 58 f6 be 4d 4b 3f bc e4 aa d2 be da 46 40 3e
       -0.48114246 -0.011675668 -0.41146004 0.18777028
000170 46 54 53 be fc 7f d8 3d 00 f7 cc 3d 85 b1 be 3e
       -0.20637617 0.10571286 0.10008049 0.37244812
000180 ea 66 f3 3e 81 b6 b6 3e 0e 99 90 be 9f 9f 46 3d
       0.47539455 0.35686114 -0.2824177 0.04849207
000190 38 c9 c6 3d e8 7e e8 be 40 e9 ad 3e f3 f1 f9 3e
       0.09706348 -0.45409322 0.33967018 0.48817405
0001a0 52 3a 03 be 04 3a 62 3d 92 ac fa be 33 cc 89 3e
       -0.12815216 0.05523111 -0.48959786 0.26913604
0001b0 a5 ec fb 3e 61 79 9f 3d 36 c3 e0 3e e7 4e cb 3e
       0.49203983 0.07786823 0.43898934 0.39708635
0001c0 85 c7 a9 3e 2a 3d 28 3e 58 1f 0e 3d 8e f4 82 3e
       0.33160034 0.16429582 0.03469786 0.25577205
0001d0 c2 cf dd be 48 1d b6 3e 48 66 8c 3e 72 c8 47 be
       -0.4332257 0.35569215 0.27421784 -0.19510058
0001e0 ea 26 cb 3e 7c a8 5f be 14 24 36 3e 0c fc 7c 3e
       0.39678127 -0.21841615 0.177872 0.24705523
0001f0 7a e5 a7 3e 18 70 8e be 24 3e 5c be 6c 43 b2 be
       0.32792264 -0.27819896 -0.2150808 -0.34817064

bias f4 [32]
000000 3d 8f f0 bd 8f 64 30 3d 21 fd d7 be ec 8b cd be
       -0.117460705 0.04306465 -0.4218531 -0.40145814
000010 fd 4b bc be ec ba 01 3e e6 c7 6d 3e f9 47 9c 3e
       -0.36776724 0.12668961 0.23220786 0.3052366
000020 2c 4b f3 be b4 5a c3 3e 80 b3 bb be 72 13 f6 3e
       -0.4751829 0.38155138 -0.36660385 0.4806171
000030 5d da 99 3d e0 32 a1 be 40 f5 8b be 97 8b cb bd
       0.075123526 -0.31484127 -0.27335548 -0.09938734
000040 f4 4a 07 3e 50 fe 48 be ae ae ed be a8 11 ee 3e
       0.13212186 -0.19628263 -0.46422333 0.46497846
000050 88 2e 08 be fd d6 19 3e 0a 3c ee 3e 97 b9 86 be
       -0.13299 0.15023418 0.4653018 -0.2631347
000060 42 50 99 3e 81 7b 14 be 85 59 d0 3e 62 d0 fa 3e
       0.29944044 -0.14500238 0.40693298 0.48987108
000070 aa 62 a8 bd 0c b4 a6 be 7a 71 64 be 22 61 f3 bd
       -0.08221944 -0.3255924 -0.22308913 -0.11883761

weight f4 [16, 32]
000000 d3 cc c3 bc 6b 96 f4 3c d4 15 bf 3d a8 db 61 3d
       -0.023901379 0.029856881 0.09330335 0.05514112
000010 f5 c2 04 3d d9 c5 cc 3c 1e ac cf 3d 85 3e 68 3d
       0.032412488 0.024996685 0.101402506 0.05670025
000020 b4 48 30 3d fd f1 5f 3d a1 84 a8 bd 2c 5a 13 be
       0.043038085 0.054674137 -0.08228422 -0.14389867
000030 ff 32 a4 3d dd 25 06 3e e4 0a 2d be 1d a4 f9 bd
       0.08017539 0.13100381 -0.16898686 -0.12189505
000040 07 9c 90 3b b6 f7 0e be d9 7b 2d be 32 46 db bd
       0.004413131 -0.13961682 -0.16941775 -0.10706748
000050 9a d4 0a be 64 4c b5 bd 8f 61 4a 3d 46 60 fd 3d
       -0.13557664 -0.08852461 0.049409445 0.12371878
000060 ee a1 04 be 3a 44 27 3d 97 ba 2c 3e ca a4 2f bd
       -0.12952396 0.04083655 0.16868053 -0.042881764
000070 01 87 27 3e 22 06 9e 3d 62 65 cc 3d 6a 46 b8 bd
       0.16360094 0.077160135 0.09980275 -0.089978054
000080 72 0d 00 be 93 7c 2d be d1 64 33 be 7f b9 12 be
       -0.12505129 -0.16942053 -0.17518927 -0.14328574
000090 05 22 b0 bd b7 72 08 3d e3 95 fd 3d 29 1f ab 3d
       -0.08600239 0.033312526 0.12382104 0.08355553
0000a0 40 db 34 bb f0 72 ad bd 0e 1a ad 3d 47 4c ec bc
       -0.0027596503 -0.08469188 0.08452235 -0.028844966
0000b0 b3 47 d8 bd 9d d0 0c 3e 39 9a 2a 3a 97 cc 1e 3e
       -0.105605505 0.13751455 0.00065079663 0.15507732
0000c0 68 fd f5 3d 29 46 73 bd 8e f5 9c 3d 9c 36 79 bb
       0.12011224 -0.05939308 0.07664023 -0.0038026934
0000d0 60 e0 b8 3c ad a5 3b 3d 16 38 2c be 0c bf 52 3d
       0.022567928 0.045812298 -0.1681827 0.051451728
0000e0 41 2a 33 3e 9f 04 bd bd 65 d5 1c bd f7 59 50 bd
       0.17496587 -0.09229397 -0.038289446 -0.050867047
0000f0 f4 ce dc 3d 45 0e 03 3e 76 4f cd bd c4 cd cf bd
       0.10781661 0.12798412 -0.100249216 -0.101466686
000100 b3 b7 11 3e 18 59 0a 3d 4e 6a 98 bd b4 cf 16 be
       0.14230232 0.033776373 -0.07442151 -0.1472767
000110 13 67 23 3e 32 7f 9a bc c6 b7 36 bc 7c 36 71 bd
       0.15957288 -0.01885948 -0.011152213 -0.05888985
000120 00 21 41 bd 00 ea 26 bd 3e b6 e5 3d a9 b4 ba bd
       -0.047150612 -0.040750504 0.112164006 -0.091164894
000130 aa 40 d4 3d c1 a4 ec bd 5b b8 8d bd 61 7f 23 3e
       0.10363896 -0.11554862 -0.06919929 0.1596656
000140 ae 26 c5 3d f3 bc 16 be 74 2f 47 3d 60 39 bb bc
       0.09626518 -0.14720516 0.04862924 -0.022854507
000150 40 fe c1 3b 25 4b cb bd ae c3 91 bd 46 1c 59 bd
       0.0059202015 -0.09926442 -0.07117401 -0.05300548
000160 44 05 9b 3d 03 d0 04 3e c4 36 16 be 48 c0 f8 bd
       0.07569364 0.12969975 -0.14669329 -0.1214605
000170 9a 45 0d bd 78 17 86 bc 90 dd 27 3d 0c a4 af 3d
       -0.034490205 -0.016368613 0.040982783 0.08576211
000180 0c 5b 1e bd 62 ea 9f bd b0 59 9c 3c 07 a4 2e 3e
       -0.038661048 -0.07808377 0.019085735 0.17054759
000190 84 20 53 bc a6 f8 06 3d e9 2a 0a 3e 38 fa eb bd
       -0.01288617 0.032951973 0.13492931 -0.11522335
0001a0 18 4f 2e 3d ef d1 a9 bd 54 b0 e0 bd 7b eb b6 bd
       0.0425559 -0.08291995 -0.10971132 -0.08931633
0001b0 bd 8e 2a bc 65 c5 0e 3e c4 56 bb bd 85 85 c2 bd
       -0.010410008 0.13942488 -0.091474086 -0.09498123
0001c0 0a f4 ea bd 72 58 20 3d ba fa 2a be 8a e8 e8 bd
       -0.11472328 0.039146848 -0.16697207 -0.11372478
0001d0 b1 8d 2d 3e 32 0a 42 bd 04 a8 96 3d ec 4e 3a 3d
       0.16948582 -0.047373004 0.07356265 0.045485422
0001e0 09 66 07 bd 86 54 64 bd 26 31 13 be 45 cd c1 3d
       -0.033056293 -0.05574467 -0.14374217 0.0946298
0001f0 06 e6 ec bd 62 8f 8c 3d 20 1f 91 bd b2 93 90 3d
       -0.11567311 0.068632856 -0.07086015 0.07059421
000200 73 cb 2c 3e 58 14 37 3d fe 9c a2 3d 08 a9 65 3d
       0.16874485 0.044697136 0.079401 0.056069404
000210 01 94 1d be e4 46 88 bd 58 7c fb 3c 4f c2 06 be
       -0.1538849 -0.06654146 0.03069894 -0.1316006
000220 56 8b af 3d 5a 80 08 be e6 56 d5 3d 5e 59 ac 3d
       0.08571498 -0.13330212 0.10416965 0.08415483
000230 40 47 47 bc f8 d6 d3 bd 49 4d f4 bd de 7a fa 3d
       -0.012162983 -0.103437364 -0.119288035 0.12230466
000240 8c 2f 00 bd 49 a8 12 3e bc ec 62 bd d0 d9 47 bc
       -0.031295344 0.14322008 -0.05540155 -0.012197927
000250 62 72 05 be 52 34 25 be c0 be e7 bb 80 b5 d2 bc
       -0.13031915 -0.1613324 -0.0070722997 -0.025721312
000260 7e 1b cc 3d c8 0e 19 3d c8 16 29 3d 5a 18 33 be
       0.09966181 0.037367612 0.04128149 -0.17489758
000270 b3 1b 2a 3e 36 c1 db 3d c0 04 9d bb 47 d0 0f 3e
       0.16612129 0.107302114 -0.004791826 0.14044295
000280 00 59 53 3c 36 3c 9b 3d 74 9a 86 3d f0 28 eb bd
       0.012899637 0.07579844 0.06572428 -0.114824176
000290 80 77 2c bc 24 54 04 be ac 86 20 be 82 a5 6f bd
       -0.010526538 -0.12922722 -0.15676373 -0.05850745
0002a0 06 ff df bd ee fa 33 be 70 a6 51 bd e6 85 84 3d
       -0.10937314 -0.17576191 -0.051184118 0.064708516
0002b0 aa 27 0e be cb 60 09 3e 14 2a 67 bd d7 f6 29 3e
       -0.13882318 0.1341583 -0.056436613 0.16598068
0002c0 d3 b3 2b 3e 27 41 20 3e 69 3e 85 bd f0 55 2a bc
       0.16767816 0.15649854 -0.065060444 -0.010396466
0002d0 30 03 44 3d 4d 47 33 3e c6 2e 14 be 70 dc 5d bc
       0.047854602 0.17507668 -0.14470968 -0.013541326
0002e0 f0 00 61 bd 31 bf 02 be 6b 14 a4 bd f0 1c 5b bc
       -0.054932535 -0.12768246 -0.08011707 -0.013373598
0002f0 71 d4 18 3e 8a 14 80 3d 98 4b fa bc 8e 4b d5 3d
       0.1492479 0.062539175 -0.030553624 0.104148015
000300 9f e9 01 bb e3 c7 20 be ff a5 b8 3d bc 06 0f 3d
       -0.0019823087 -0.1570125 0.09016036 0.03491853
000310 32 47 81 bd ad 13 fa 3c 7e 9a 2f 3e b7 40 8d 3d
       -0.063124076 0.03052696 0.17148778 0.06897109
000320 2a 96 bf 3d dc 07 19 3e 84 f1 79 bd e4 e0 1a 3e
       0.093548134 0.14944404 -0.061021343 0.15124851
000330 2b c8 2b bc 70 50 7d 3d b6 14 bb 3d 6a 5b 0e 3e
       -0.0104847355 0.06184429 0.0913481 0.13902059
000340 ff 13 d5 3d 03 67 20 3e 14 f1 1b be dd 16 d6 bd
       0.104042046 0.15664296 -0.15228683 -0.104535796
000350 bf 1b 1d 3e 51 9f cd 3d 61 a1 f4 bd 2d 3e 4c bc
       0.15342616 0.10040153 -0.11944843 -0.012465996
000360 05 a3 15 be 85 b1 75 3d 1d 62 eb 3c 85 66 04 3d
       -0.14612968 0.05998375 0.028733307 0.032324333
000370 25 1c 04 be ff e3 07 bd e3 b3 83 bc a0 c0 e4 3b
       -0.12901361 -0.03317642 -0.016076988 0.0069809705
000380 94 57 4d 3d a4 5c be bd c1 2e 02 3d 93 e7 31 3e
       0.05013235 -0.092950135 0.03178287 0.17373495
000390 f3 02 d9 3d 5a f6 06 3e 94 a9 bb 3d 1d 69 66 bd
       0.10596266 0.13179913 0.09163204 -0.056252588
0003a0 ea d9 9e 3d 46 9f a3 bb 32 96 02 3c 3c 75 65 bb
       0.077564076 -0.004993352 0.00797038 -0.0035012504
0003b0 d9 8c 40 3d c6 da e8 3d 1d 01 f1 bd 02 2d fc 3d
       0.047009323 0.11369853 -0.117677905 0.12313272
0003c0 f7 57 01 3e c7 ea 03 be 42 69 1f be 1d 01 8e bc
       0.12631212 -0.12882529 -0.15567496 -0.017334515
0003d0 59 5d 2a 3e 7e df 23 3e 2f 6b b1 bd d5 43 b9 bd
       0.16637172 0.16003224 -0.08663022 -0.09046141
0003e0 75 56 cc 3d 68 51 2b 3e c7 86 1f 3e d9 31 28 3e
       0.09977428 0.16730273 0.15578757 0.16425265
0003f0 98 ae 54 3d 2d 42 d8 3d 75 6f 91 bc be 2a 1c 3d
       0.051924318 0.10559497 -0.017753342 0.0381267

bias f4 [16]
000000 d7 90 17 3e f1 42 98 3d 91 09 fe 3d ff 78 e3 3d
       0.14801346 0.07434643 0.124041684 0.111070625
000010 30 88 32 bc c4 63 ea bd c9 c1 1e ba 73 59 77 bd
       -0.010896727 -0.1144481 -0.0006056098 -0.06038804
000020 33 04 00 3e 31 ca 06 be 57 e2 9d 3b b8 20 c2 3c
       0.12501602 -0.13163067 0.0048182416 0.023697242
000030 5e 9d 1e bd 44 b1 ff 3c da 26 66 bd 16 7b 96 bd
       -0.038724296 0.031212457 -0.056189395 -0.073476955

weight f4 [1, 16]
000000 3d 52 ea bd 4b 46 05 3e 02 81 49 be d2 66 ac bd
       -0.11441467 0.13015096 -0.19678119 -0.08418049
000010 40 6e 31 bc 32 c0 79 3e 69 ea 9b 3d 58 7c 77 bd
       -0.010829508 0.24389723 0.076130696 -0.060421318
000020 56 67 29 be ea f7 52 be 6d de dd 3d 4b e8 e6 3c
       -0.16543326 -0.20602384 0.1083344 0.028186938
000030 fa b1 61 3d ab 05 77 3e c8 e6 6d 3e ee ef 1e be
       0.055101372 0.24123256 0.23232567 -0.15521213
