models/neural_network_for_human.pt (torch, 7154 bytes, 5 tensors)

weight f4 [32, 4]
0	0x3d97cc10	0.07411969
1	0x3c80b257	0.015710039
2	0x3e8247f6	0.25445527
3	0xbe7d6b0c	-0.24747866
4	0xbeacc2c2	-0.33742338
5	0xbe9949b2	-0.29939038
6	0x3e59539a	0.21223298
7	0x3eb278ca	0.3485778
8	0xbe44127c	-0.19147676
9	0xbec2aac6	-0.38020915
10	0xbe4f333c	-0.20234388
11	0xbdb8ef34	-0.090299994
12	0xbd06a0af	-0.032868084
13	0xbe3168ea	-0.17325178
14	0xbe200f54	-0.15630847
15	0xbe670fbc	-0.22564596
16	0x3ed900a8	0.42383313
17	0xbe453f88	-0.19262516
18	0x3ee7cf70	0.4527545
19	0xbd308e03	-0.043104183
20	0xbe8f988e	-0.28046077
21	0x3e09230c	0.13392276
22	0x3ec187fc	0.3779906
23	0xbe491cc2	-0.19639876
24	0xbda716cf	-0.08158647
25	0x3d4afcf4	0.04955764
26	0xbe99f498	-0.30069423
27	0xbede6488	-0.43436074
28	0x3e817c1e	0.25290006
29	0x3e72cf05	0.23711784
30	0x3ef35e36	0.47532815
31	0x3eddc2a7	0.4331257
32	0x3ee9fb99	0.45699766
33	0x3e7454d8	0.2386049
34	0x3ee9a31e	0.4563226
35	0xbeb75188	-0.3580439
36	0x3ed4ca88	0.4156077
37	0xbecd5b8b	-0.40108904
38	0x3eefbf0e	0.4682545
39	0xbede170a	-0.43376952
40	0xbe20dc14	-0.15708953
41	0xbda2fbe0	-0.079581976
42	0x3d9bf18c	0.07614431
43	0xbe4d1d14	-0.20030624
44	0xbe4c21bc	-0.19934744
45	0xbe765afc	-0.24058145
46	0x3d2c62e2	0.04208649
47	0x3d66d7f9	0.05635831
48	0x3e2edef0	0.17077231
49	0xbed54584	-0.416546
50	0xbefa2b16	-0.48860997
51	0xbc9c99c0	-0.019116282
52	0x3ec206e1	0.37895873
53	0x3e9b46a2	0.30327326
54	0xbed8f246	-0.4237234
55	0x3ec9b484	0.39395535
56	0xbeb3927f	-0.35072705
57	0x3eef60e6	0.46753615
58	0xbdf9fb01	-0.12206078
59	0x3e3b1498	0.18269575
60	0xbdcb1318	-0.09915751
61	0x3e2e5ad8	0.17026842
62	0xbdaf1220	-0.08548379
63	0xbe6180ac	-0.2202174
64	0xbe48eb64	-0.19621044
65	0x3d246b70	0.040141523
66	0xbe8989c2	-0.26862913
67	0xbec71306	-0.388817
68	0x3eb271db	0.3485249
69	0x3ed4e822	0.41583353
70	0xbe7a9692	-0.244715
71	0xbef716c8	-0.48259568
72	0xbe8912f2	-0.26772267
73	0xbdc6ff70	-0.097166896
74	0xbc7a595b	-0.015280093
75	0x3c7207e6	0.014772391
76	0xbdff61a4	-0.12469795
77	0x3e8c1f4c	0.27367628
78	0x3ecbe95c	0.39826477
79	0xbee082e7	-0.4384987
80	0xbe3e0a48	-0.1855861
81	0xbee172c8	-0.44032884
82	0xbdf0c508	-0.11756331
83	0xbebd5cdc	-0.3698491
84	0xbda5946f	-0.08084952
85	0x3ebe34a3	0.37149534
86	0x3ef50926	0.47858542
87	0xbdf49f95	-0.119445
88	0xbeeaaede	-0.45836538
89	0x3ef57365	0.47939602
90	0xbee0effe	-0.439331
91	0xbecf8224	-0.40528977
92	0xbecb15c6	-0.3966505
93	0x3ceaf186	0.02867962
94	0x3eb4f8ba	0.35346013
95	0x3c835bfe	0.016035076
96	0xbecc514c	-0.39905775
97	0xbed56a48	-0.4168265
98	0xbe471960	-0.19443274
99	0xbe17c468	-0.14821017
100	0xbe9b7718	-0.303643
101	0xbede8be0	-0.4346609
102	0x3db170a8	0.086640656
103	0x3df099ee	0.1174811
104	0x3eaf75a8	0.34269452
105	0x3d873936	0.06602709
106	0x3ec9462a	0.39311343
107	0xbe7b48f9	-0.24539556
108	0xbe816ed2	-0.25279862
109	0x3d81ac09	0.06331641
110	0xbddabef0	-0.1068095
111	0xbefd6134	-0.49488223
112	0xbddf51f0	-0.109043
113	0xbed77c74	-0.42087138
114	0xbde11cd8	-0.1099183
115	0xbeef4d06	-0.46738452
116	0x3eb3322b	0.34999213
117	0x3ec7cda2	0.39024073
118	0x3ec0e18c	0.3767208
119	0xbe707042	-0.23480323
120	0x3eb4675a	0.352351
121	0xbe7acad0	-0.2449143
122	0x3e14dea8	0.14538062
123	0xbe8624d2	-0.26199967
124	0xbe0b3f60	-0.13598394
125	0xbec7399f	-0.3891115
126	0xbda1be2e	-0.07897602
127	0xbe49f678	-0.19722927

bias f4 [32]
0	0xbe74311c	-0.23846859
1	0xbc455f99	-0.012046718
2	0x3e247c92	0.16063145
3	0x3e96f54f	0.2948403
4	0x3dc17671	0.09446419
5	0xbe8c45a6	-0.27396888
6	0x3ef401c9	0.47657612
7	0x3e5977b2	0.21237066
8	0xbe9c009c	-0.30469215
9	0x3ece1315	0.40248933
10	0xbc805102	-0.015663628
11	0x3e116a0e	0.14200613
12	0xbd42de40	-0.047575235
13	0xbea10294	-0.3144728
14	0x3e7f2022	0.24914601
15	0xbe5e77f4	-0.21725446
16	0xbe0714e8	-0.13191569
17	0xbd513a2f	-0.05108088
18	0x3e98e9f0	0.2986598
19	0x3e74d96c	0.23911065
20	0x3e00fe06	0.12596902
21	0x3e8dd640	0.27702522
22	0xbd325bfe	-0.04354476
23	0x3b67b898	0.003535783
24	0x3eadaa22	0.33918864
25	0x3d3c57e0	0.04598224
26	0x3ebc705d	0.36804476
27	0x3d1532f7	0.036425557
28	0xbea9b09e	-0.3314256
29	0xbe8f1c64	-0.27951348
30	0xbefd29ea	-0.4944604
31	0x3ef9dc7d	0.48801032

weight f4 [16, 32]
0	0x3e31399d	0.17307134
1	0xbdf19940	-0.11796808
2	0xbe16b437	-0.14717184
3	0xbe078c7c	-0.13237184
4	0xbd9da6a8	-0.07697803
5	0xbe2c3d88	-0.16820347
6	0xbd56be25	-0.05242743
7	0x3e2611eb	0.16217773
8	0xbe2dacc4	-0.16960436
9	0x3e16c942	0.14725211
10	0xbdd29dbb	-0.10283991
11	0x3d13b696	0.0360628
12	0xbdba7465	-0.09104232
13	0xbdca76b3	-0.09885921
14	0xbda42f4d	-0.080168344
15	0x3e2e0f1f	0.16997956
16	0x3c651480	0.013981938
17	0x3e1e2cfc	0.15446848
18	0xbdb0380f	-0.08604442
19	0xbc90ced4	-0.017676748
20	0xbbdccfa6	-0.006738621
21	0xbcd63fd7	-0.026153488
22	0x3da06c05	0.07833103
23	0xbd7d424e	-0.06183081
24	0x3cb4ed69	0.022085862
25	0xbd4cbe54	-0.0499862
26	0x3db42434	0.08795968
27	0xbdfc0734	-0.123060614
28	0xbe074ad4	-0.13212138
29	0xbd0592c1	-0.03261066
30	0x3d0878b4	0.033318236
31	0x3e082607	0.13295756
32	0x3e1e9c25	0.15489252
33	0xbe222b36	-0.15836796
34	0x3d506311	0.050875727
35	0x3d46fb48	0.048579484
36	0x3e168fb8	0.14703262
37	0x3a1174e4	0.0005548729
38	0xbdbf6c77	-0.0934686
39	0x3e1586ac	0.14602154
40	0xbd83910a	-0.064241484
41	0xbc389b4f	-0.011267497
42	0xbad7b948	-0.0016458416
43	0x3e072256	0.13196692
44	0x3ddbb1a2	0.1072724
45	0xbd70f048	-0.0588229
46	0x3cde532f	0.027139274
47	0xbdc72e90	-0.09725678
48	0xbd19f168	-0.03758374
49	0x3dd3710e	0.10324298
50	0x3d2a510d	0.041581202
51	0x3daca92f	0.08430707
52	0x3e0678e7	0.13132058
53	0x3da9fe36	0.0830044
54	0xbdcf958f	-0.10135948
55	0x3e0f81a3	0.14014296
56	0xbdb0e862	-0.086380735
57	0xbe29ba15	-0.16574891
58	0xbccfde8a	-0.02537467
59	0xbe278184	-0.16358
60	0x3b6a51c0	0.0035754293
61	0x3e147d38	0.14500892
62	0xbe1ac257	-0.15113197
63	0xbde58c9f	-0.11208462
64	0xbbbce20e	-0.0057642525
65	0x3dc5847a	0.096444085
66	0x3da7d216	0.081943676
67	0x3e245f8e	0.16052076
68	0x3cc38695	0.023867885
69	0xbdd087db	-0.101821624
70	0x3e1c8bd8	0.15287721
71	0xbe2f7794	-0.17135459
72	0xb9484530	-0.0001909926
73	0x3e1f6c8b	0.1556875
74	0x3da9afe6	0.08285503
75	0xbe261368	-0.1621834
76	0xbce67e36	-0.028136354
77	0xbd79047c	-0.060795292
78	0x3e133069	0.14373936
79	0xbe2bbd78	-0.16771495
80	0x3e343149	0.17596926
81	0x3e056116	0.13025317
82	0xbda77283	-0.08176138
83	0xbdaa4ec1	-0.08315802
84	0x3e2905d3	0.16506128
85	0xbe201fce	-0.15637133
86	0xbd66d9cb	-0.056360047
87	0xbbe1b93e	-0.0068885377
88	0xbde3a4c4	-0.11115411
89	0x3bae270f	0.0053147147
90	0x3e04ef3e	0.12981889
91	0x3dbd4e31	0.092434295
92	0x3d928026	0.071533486
93	0xbb95b915	-0.0045691826
94	0x3e289009	0.16461195
95	0xbc0c0b66	-0.0085476395
96	0x3e2c6f23	0.1683927
97	0x3e08ac42	0.13346961
98	0xbb95ee5c	-0.004575534
99	0x3e17e87c	0.1483478
100	0xbe3034dd	-0.17207666
101	0xbe265931	-0.16244961
102	0xbe288bd0	-0.16459584
103	0xbdd5990e	-0.104295835
104	0xbe03e2a2	-0.12879422
105	0xbe2ab647	-0.16671096
106	0xbde178fb	-0.11009403
107	0x3d683634	0.056692317
108	0x3d33c1d4	0.04388602
109	0x3d9283ec	0.07154068
110	0x3e1769ed	0.14786501
111	0x3d8c53ec	0.06851944
112	0xbe2e6709	-0.17031492
113	0xbd6b3d8b	-0.05743174
114	0x3c3ed6d4	0.011647899
115	0x3ddf8af9	0.10915179
116	0x3d793459	0.06084094
117	0x3e22ca17	0.15897404
118	0x3d9718ef	0.073778026
119	0x3d4bd792	0.04976613
120	0x3e169f8d	0.14709301
121	0x3cb2a9c0	0.021809459
122	0xbd6c7988	-0.05773309
123	0xbcd36ac5	-0.025807748
124	0x3d6fe1a4	0.058564797
125	0x3dbf2c33	0.09334602
126	0xbe3229bc	-0.17398733
127	0xbd479f43	-0.04873587
128	0xbd32fed0	-0.04370004
129	0xbe29754e	-0.16548654
130	0xbe14a17a	-0.14514723
131	0x3d2617bc	0.04054998
132	0x3d414795	0.047187407
133	0x3e09b6df	0.13448666
134	0x3d90a5bb	0.070628606
135	0x3e34566f	0.17611097
136	0xbe25a04f	-0.16174434
137	0xbdcf3ac5	-0.10118631
138	0xbdd6519c	-0.104647845
139	0x3e031f05	0.12804802
140	0xbe0d6a1f	-0.13810013
141	0xbde046bc	-0.109509915
142	0xbe290478	-0.16505611
143	0xbcdad6a0	-0.02671367
144	0xbe01c576	-0.12672982
145	0xbd3a9122	-0.045548566
146	0xbdeb6820	-0.1149447
147	0xbdd8bac5	-0.105824985
148	0x3d9477f2	0.0724944
149	0x3e2cff06	0.16894159
150	0xbd8a732b	-0.06760248
151	0xbdadf409	-0.08493812
152	0x3d580b76	0.052745305
153	0xbd5d07b8	-0.05396244
154	0x3df7105e	0.12063669
155	0x3dcf37ae	0.10118042
156	0xbd81f0ec	-0.0634478
157	0xbdca274b	-0.09870776
158	0x3e1f0eeb	0.15533035
159	0xbceead14	-0.029135264
160	0x3e00e335	0.12586673
161	0x3cfe62c7	0.03105296
162	0x3dabb53e	0.083841786
163	0x3e07b549	0.13252749
164	0x3d536613	0.051611017
165	0xbd65ee28	-0.056135327
166	0xbde4397e	-0.11143778
167	0x3deba723	0.11506488
168	0xbe126113	-0.14294843
169	0x3d4b9952	0.049706765
170	0xbd4d9c08	-0.05019763
171	0xbe242f0c	-0.16033572
172	0xbd926681	-0.07148457
173	0x3dbe41ee	0.09289919
174	0xbd1ffd5a	-0.039059974
175	0x3d9398d0	0.07206881
176	0x3d269580	0.040669918
177	0xbd353c50	-0.04424697
178	0x3da340c1	0.07971335
179	0xbd94a91d	-0.07258818
180	0xbcbbd4e8	-0.02292867
181	0x3cb2bc70	0.02181837
182	0xbc49722c	-0.012295287
183	0x3e0041b7	0.12525068
184	0x3d31e426	0.04343047
185	0xbc6a2ff7	-0.014293662
186	0x3d29b54c	0.041432664
187	0xbd87d097	-0.06631582
188	0x3d5dad28	0.054120213
189	0x3da56ba8	0.080771744
190	0xbdd2092f	-0.10255658
191	0xbc81f7f2	-0.0158653
192	0x3e2cb327	0.16865216
193	0xbdcaa5f6	-0.09894936
194	0xbcf28ccf	-0.029608158
195	0x3dc57199	0.09640808
196	0x3de23eb8	0.11047119
197	0xbc5af195	-0.013363262
198	0x3bf7c2ce	0.0075610643
199	0xbe1ade0f	-0.15123771
200	0xbe344bb7	-0.17607008
201	0xbdeefd97	-0.11669462
202	0xbe2a991e	-0.16659972
203	0xbe239ac9	-0.15977015
204	0xbdc6c549	-0.09705598
205	0x3c4e5bc1	0.012595118
206	0xbd3a0af1	-0.04542059
207	0xbe2e8f3b	-0.17046826
208	0xbd16916c	-0.03675978
209	0x3c32e821	0.010919602
210	0xbd74a89a	-0.059731103
211	0x3df9e125	0.12201146
212	0x3dde1355	0.10843531
213	0x3dd0e04f	0.101990335
214	0xbdc762a8	-0.09735614
215	0xbe0e0cd1	-0.13872077
216	0x3df92212	0.121647015
217	0x3e118517	0.14210926
218	0x3de843fb	0.11341091
219	0xbdaed8ec	-0.08537468
220	0x3d6b6420	0.057468534
221	0x3d82ba41	0.06383181
222	0x3d90b3ee	0.07065569
223	0x3b466d8e	0.0030277702
224	0xbdb7798e	-0.089587316
225	0x3c2ff082	0.010738494
226	0xbcbb7638	-0.02288352
227	0xbcdd0e9a	-0.026984502
228	0xbd9fb29b	-0.07797738
229	0x3d6481fa	0.055788018
230	0xbd32aa00	-0.043619156
231	0xbdabb824	-0.083847314
232	0x3e0b0921	0.13577701
233	0xbd6e93bb	-0.058246356
234	0xbe24ccc8	-0.16093743
235	0x3e176fb3	0.14788704
236	0x3e171e03	0.14757542
237	0xbe2c1141	-0.16803457
238	0x3e2257c2	0.1585379
239	0x3e1c96ab	0.1529185
240	0x3d507a68	0.050897986
241	0x3deccfaf	0.1156305
242	0x3d436373	0.047702264
243	0x3dd16f6e	0.10226332
244	0x3d28bbc8	0.041194707
245	0x3c29f8eb	0.010374288
246	0xbcd139f9	-0.025540339
247	0x3e1b67ff	0.1517639
248	0xbdecf77c	-0.115706414
249	0x3d5dc0e0	0.054139018
250	0x3e24fa64	0.16111141
251	0x3d9f16ae	0.07767998
252	0xbc333f80	-0.010940433
253	0x3dd35578	0.10319036
254	0xbe20205e	-0.15637347
255	0x3dae7777	0.0851888

bias f4 [16]
0	0xbc6fcc1d	-0.014636067
1	0x3d145539	0.036214087
2	0x3df3e48d	0.11908827
3	0x3d1e2a20	0.038614392
4	0xbc4727ac	-0.012155455
5	0x3d0fec42	0.035137422
6	0x3e04704f	0.12933467
7	0xbe333212	-0.17499569
8	0xbe1f2f50	-0.15545392
9	0x3e095624	0.13411766
10	0xbe2a203f	-0.16613863
11	0xbe17f32d	-0.14838858
12	0xbd243b9a	-0.040095903
13	0xbd7151e1	-0.058915976
14	0x3e2362bf	0.15955637
15	0x3cf4e257	0.029893083

weight f4 [1, 16]
0	0x3e237aed	0.15964861
1	0x3e534cc3	0.20634751
2	0xbe4a1c3b	-0.19737332
3	0x3e62ad93	0.22136526
4	0xbd8ffcab	-0.070306145
5	0xbb8b6915	-0.00425447
6	0x3e4dcbf0	0.20097327
7	0xbbd68cef	-0.0065475623
8	0xbd1892f8	-0.037249535
9	0x3e490600	0.19631195
10	0xbe03d932	-0.12875822
11	0xbccad45d	-0.024759466
12	0x3e3a4f2a	0.18194261
13	0xbe49c6db	-0.19704764
14	0xbe2a83a3	-0.16651778
15	0x3db9d0cc	0.09073028
